Dataset/saved_dict/CNN.ckpt (torch, 4911 bytes, 7 tensors)

convs.0.weight f4 [32, 1, 2, 1]
0	0xbea50ae7	-0.3223488
1	0xbe155e5e	-0.1458678
2	0xbf5b21cd	-0.8559845
3	0x3f1aee03	0.6051943
4	0x3c874ef9	0.01651715
5	0xbbed6108	-0.007244233
6	0x3e095da0	0.13414621
7	0xbeecb772	-0.46233708
8	0x3c64f1d3	0.013973671
9	0xbe344e11	-0.17607905
10	0xbc55971c	-0.013036516
11	0x3d731506	0.05934622
12	0xbcdabf98	-0.026702687
13	0x3c2be4f4	0.010491598
14	0xbdb8cf02	-0.090238586
15	0xbeb43ace	-0.35201114
16	0xbda5a729	-0.08088524
17	0x3b1ea361	0.0024206268
18	0xbd4b7906	-0.049675964
19	0xbf150592	-0.58211625
20	0xbeca78e2	-0.3954535
21	0x3cd2a8d9	0.025715278
22	0xbe85ba5b	-0.2611874
23	0xbea04119	-0.31299666
24	0xbed5eb0f	-0.41780898
25	0xbe8c011d	-0.273446
26	0xbeb8e964	-0.36115563
27	0xbb8a45de	-0.0042197546
28	0x3f0de9a7	0.5543465
29	0xbf6cc8e6	-0.92494047
30	0x3e860a34	0.2617966
31	0xbeea0b76	-0.4571187
32	0xbf0b7c41	-0.5448647
33	0xbde09c95	-0.10967366
34	0xbd00847d	-0.03137635
35	0x39fd2e14	0.0004829025
36	0xbe306c3d	-0.1722879
37	0xbf61766e	-0.88071334
38	0xbe9f6ae7	-0.31136248
39	0xbe6c59ca	-0.23081127
40	0xbf6d981c	-0.92810225
41	0xbe47fd86	-0.19530305
42	0x3e152464	0.14564663
43	0xbd68398b	-0.056695502
44	0xbf17a591	-0.5923701
45	0xbb96939c	-0.004595233
46	0x3edb6fb6	0.42858666
47	0xbeb3dba7	-0.3512852
48	0xbcb4e3d3	-0.022081291
49	0xbd061a25	-0.032739777
50	0x3c18a203	0.00931597
51	0xbd9099a8	-0.070605576
52	0x3d8243eb	0.063606106
53	0xbd776241	-0.060396437
54	0xbc58039c	-0.013184454
55	0x3d020c39	0.031749938
56	0xbefe0778	-0.49615073
57	0x3e0d0c5a	0.13774243
58	0x3dc9ef5d	0.09860108
59	0xbeb4d7e5	-0.35320964
60	0xbdea8c6d	-0.11452565
61	0xbedf08ee	-0.435615
62	0x3e0d435f	0.13795231
63	0x3e4df3ca	0.2011253

convs.0.bias f4 [32]
0	0x3fce10ee	1.6098917
1	0xbe90f12b	-0.28308997
2	0x3f88fd43	1.0702289
3	0xbf9929e9	-1.1965915
4	0xbf95946a	-1.1685917
5	0x3ee7feb7	0.4531152
6	0x3f9fa3e2	1.2471888
7	0x3f576486	0.8413776
8	0x3f8f791c	1.1208835
9	0xbf15d46b	-0.5852725
10	0xbf4b0ac8	-0.79313326
11	0xbf9f5cda	-1.2450211
12	0xbfb56c92	-1.4173758
13	0x3faae5aa	1.3351338
14	0xbd9b399e	-0.07579349
15	0x3edd3fcc	0.43212736
16	0x3dfefe67	0.12450867
17	0x3f7e0a2f	0.9923429
18	0xbee40cbc	-0.44540966
19	0xbf5d600e	-0.8647469
20	0x3ec42595	0.38309923
21	0x3f92ef4a	1.1479275
22	0x3f72738a	0.9470755
23	0xbf8d5261	-1.1040765
24	0x3f580186	0.84377325
25	0x3fc05cc1	1.5028306
26	0x3f776dc5	0.9665187
27	0x3f8c6933	1.0969604
28	0x3e428695	0.18996651
29	0x3f9cd4d6	1.2252452
30	0x3fa4e2f4	1.2881761
31	0xbe96805a	-0.293948

convs.1.weight f4 [32, 1, 3, 1]
0	0xbe349b69	-0.1763741
1	0x3ec34a5d	0.38142672
2	0xbecf8632	-0.4053207
3	0x3dbe5fe8	0.092956364
4	0xbe2a0810	-0.16604638
5	0xbe5bd514	-0.21468002
6	0xbe44914b	-0.1919605
7	0xbd91f462	-0.071266904
8	0xbde4d3ea	-0.11173232
9	0x3f228afe	0.63493335
10	0xbee5eca1	-0.44907096
11	0x3eb6434a	0.35598212
12	0xbc08eb97	-0.00835695
13	0xbe23fec3	-0.16015153
14	0x3d93dd2b	0.07219919
15	0xbe27e377	-0.16395365
16	0xbce6f912	-0.028194938
17	0x3db81219	0.08987827
18	0x3e096e6a	0.13421026
19	0xbe5d850b	-0.21632783
20	0xbb8f97e1	-0.004382119
21	0xbecfb976	-0.40571183
22	0xbf0a6eba	-0.54075205
23	0xbf03340a	-0.5125128
24	0xbed35a20	-0.41279697
25	0xbcfab08e	-0.030601766
26	0x3d22dbe6	0.039760493
27	0xbf05ff25	-0.52342445
28	0xbeb3c3be	-0.35110277
29	0x3d0e9385	0.034808654
30	0xbea57d07	-0.3232195
31	0xbb76a466	-0.003763461
32	0xbef528a0	-0.47882557
33	0xbdfb5da9	-0.12273724
34	0xbd0d94ec	-0.03456585
35	0xbd881cf2	-0.06646146
36	0xbe03462a	-0.12819734
37	0xbf213ccc	-0.62983394
38	0xbef7a8a8	-0.48370862
39	0x3de42327	0.11139517
40	0x3e058887	0.13040362
41	0xbd8902d3	-0.06689992
42	0x3e088ae5	0.13334234
43	0x3ee82495	0.4534041
44	0xbd8856ff	-0.06657218
45	0x3e397dc9	0.1811439
46	0x3f701724	0.9378531
47	0xbe63029d	-0.22168966
48	0x3e30a020	0.17248583
49	0x3e921792	0.28533608
50	0xbf813ad1	-1.0096074
51	0xbd73c73d	-0.05951618
52	0xbd93d87a	-0.07219024
53	0x3d8fa16d	0.070132114
54	0x3ecd6f65	0.4012405
55	0x3e4193e4	0.18904072
56	0x3ee8506d	0.4537386
57	0xbf16464a	-0.58701
58	0xbefc40c8	-0.49268174
59	0xbef100d8	-0.47070956
60	0x3d9134a5	0.07090119
61	0xbd14a630	-0.0362913
62	0x3dd7d211	0.10538114
63	0x3d5eeb55	0.05442365
64	0x3c1aa31f	0.009438305
65	0x3ca0327a	0.01955532
66	0xbe0035ac	-0.12520474
67	0xbeb77f44	-0.35839283
68	0xbee16c1a	-0.44027787
69	0x3d8a83c1	0.06763411
70	0xbe636ff5	-0.22210677
71	0xbed57711	-0.41692403
72	0x3d857b68	0.065176785
73	0xbcb50db5	-0.022101263
74	0xbeb688c8	-0.3565123
75	0xbe05c0da	-0.13061848
76	0xbe3f7ff8	-0.1870116
77	0xbed3b02f	-0.41345355
78	0xbe250a51	-0.16117217
79	0xbf627e9b	-0.88474435
80	0x3da252e1	0.07925964
81	0x3cbdf86d	0.023189748
82	0xbe5793cc	-0.21052474
83	0xbf1a9ee1	-0.6039868
84	0xbe9e47bd	-0.30914107
85	0xbd5d5a37	-0.054041114
86	0x3e12aca3	0.14323668
87	0x3e0096e4	0.1255756
88	0x3d4241bd	0.047425974
89	0xbcb39467	-0.02192135
90	0x3ed74527	0.42044947
91	0x3e67c785	0.22634704
92	0x3e1b7907	0.15182887
93	0xbdeef775	-0.116682924
94	0x3dbbeb0d	0.09175692
95	0xbdcea1d9	-0.10089464

convs.1.bias f4 [32]
0	0x3f43d373	0.7649452
1	0x3f806fcc	1.0034118
2	0x3fbe655d	1.4874684
3	0x3f0b2004	0.54345727
4	0x3f7155c2	0.9427148
5	0x3fc69362	1.5513728
6	0x3f8fa53f	1.1222304
7	0xbfb4ccf4	-1.4125047
8	0xbf8a22ac	-1.0791831
9	0xbf9a3a17	-1.2048978
10	0x3f83ec89	1.030656
11	0x3f75b967	0.95986027
12	0xbfb9c145	-1.4512106
13	0x3f8f93b2	1.1216948
14	0x3f5fceb8	0.874248
15	0xbedf7027	-0.43640253
16	0x3d7e83f7	0.06213757
17	0x3fa6370a	1.2985547
18	0x3e56a91e	0.2096295
19	0xbf991052	-1.1958106
20	0x3f4a8e35	0.7912324
21	0x3eac9986	0.3371088
22	0x3e7e7c27	0.24852048
23	0x3f11b557	0.5691733
24	0xbe6ebebd	-0.23314948
25	0xbf316f30	-0.69310284
26	0xbda127c9	-0.078689165
27	0xbf2ff4de	-0.6873301
28	0x3f0c9373	0.5491249
29	0x3f9557ef	1.166746
30	0x3f49ef87	0.78881115
31	0xbf543202	-0.82888806

convs.2.weight f4 [32, 1, 4, 1]
0	0x3c56309f	0.013073116
1	0x3d8b49e3	0.06801202
2	0x3f54a988	0.83071184
3	0x3e3f87fd	0.18704219
4	0xbe06ab23	-0.13151221
5	0x3c2f8363	0.010712477
6	0xbe1d444a	-0.15358081
7	0x3bb49e3b	0.0055120266
8	0xbe95c7a2	-0.2925387
9	0xbe1ee250	-0.15516019
10	0xbe1d7665	-0.15377195
11	0x3f537f8a	0.82616484
12	0xbd4a1890	-0.04933983
13	0x3c707fd1	0.014678911
14	0xbd594cf1	-0.053051893
15	0xbef00830	-0.46881247
16	0x3e2bc0ce	0.16772768
17	0xbe1c65c3	-0.15273194
18	0x3def1086	0.116730735
19	0xbea625fb	-0.32450852
20	0x3f05b03e	0.5222205
21	0xbc9594c3	-0.018259412
22	0xbf077aa6	-0.5292152
23	0xbf32b18b	-0.6980216
24	0x3f7a8b9b	0.9786927
25	0xbc5f3f88	-0.013625987
26	0x3db7bf9c	0.089720935
27	0xbe19106f	-0.14947675
28	0xbd50a4f4	-0.05093856
29	0xbe4f06db	-0.20217459
30	0x3bf638af	0.0075140814
31	0xbe39332b	-0.18085925
32	0x3fb57829	1.4177295
33	0xbf81c34d	-1.0137726
34	0xbeb05d3c	-0.34446132
35	0xbe078eba	-0.1323804
36	0xbeb0a86a	-0.3450349
37	0x3ea841b7	0.32862636
38	0xbe8f291e	-0.27961057
39	0x3d0d404a	0.03448514
40	0x3d0c6e96	0.03428515
41	0xbef9a847	-0.48761198
42	0x3eff7b0c	0.49898565
43	0x39c69d98	0.0003788292
44	0xbf073623	-0.5281698
45	0xbefdd618	-0.49577403
46	0x3ef7cb46	0.48397273
47	0xbd5aec23	-0.053447854
48	0x3eb6b470	0.35684538
49	0x3d968b7a	0.07350822
50	0xbde4a79f	-0.11164784
51	0x3e208a20	0.1567769
52	0x3ec4db8e	0.38448757
53	0xbeed1aed	-0.46309605
54	0xbd235d12	-0.03988368
55	0xbe23517c	-0.15949053
56	0x3ef481c5	0.47755256
57	0xbccffe0c	-0.025389694
58	0x3edbeca6	0.42953986
59	0x3d8aa52f	0.067697875
60	0x3eca769e	0.39543623
61	0x3dd9e547	0.10639434
62	0xbe48dc6a	-0.19615331
63	0x3d12000c	0.035644576
64	0x3e8fa58a	0.28055984
65	0x3ec55857	0.3854396
66	0xbd8d5316	-0.06900613
67	0x3d1228ca	0.03568343
68	0x3d112e11	0.035444323
69	0xbe4e997e	-0.2017574
70	0xbedf1878	-0.43573356
71	0xbf1cd944	-0.6126902
72	0x3e634213	0.22193174
73	0x3db1df12	0.086851254
74	0x3e6b9b00	0.23008347
75	0x3df0e112	0.11761679
76	0x3f0a5e31	0.54049975
77	0x3e8a5272	0.27016026
78	0xbe853714	-0.26018584
79	0x3ec116e9	0.37712792
80	0xbcbe5996	-0.023236077
81	0xbeaa551b	-0.33268055
82	0x3f041170	0.5158911
83	0xbcf30eee	-0.029670205
84	0xbe6e8563	-0.2329307
85	0x3e91b5c0	0.28458977
86	0xbf2c6df9	-0.67355305
87	0xbee07253	-0.43837222
88	0xbcf2ba64	-0.029629894
89	0xbdbd824e	-0.09253369
90	0x3d45d46d	0.048298288
91	0xbed42d75	-0.4144093
92	0x3f9af0b7	1.210471
93	0xbd2d2585	-0.04227211
94	0x3dfe591d	0.12419341
95	0xbe1697d8	-0.14706361
96	0x3f78fb84	0.9725878
97	0x3e083c10	0.13304162
98	0xbe3e2231	-0.1856773
99	0xbdf08f44	-0.11746076
100	0x3eade16b	0.33961043
101	0xbe3e7dd2	-0.18602684
102	0x3f263246	0.6492046
103	0x3e272b2e	0.16325065
104	0x3c8f9149	0.017525332
105	0xbe665cb1	-0.22496296
106	0xbef7fe80	-0.48436356
107	0xbe53aecc	-0.20672148
108	0x3d08c7a2	0.03339351
109	0xbcb82188	-0.022476926
110	0x3e836cc4	0.2566892
111	0x3d6ca1b5	0.057771403
112	0x3fc23200	1.5171509
113	0xbe8ebc72	-0.27878147
114	0x3bee70e4	0.007276641
115	0xbf2b85cf	-0.6700105
116	0x3f050dd1	0.5197421
117	0x3d01e994	0.031716898
118	0x3decb4bd	0.115579106
119	0xbde46a35	-0.1115307
120	0x3e81491e	0.25251096
121	0x3e437b68	0.19090044
122	0x3e39f6d0	0.18160558
123	0xbe14ee65	-0.14544065
124	0x3eba4e20	0.3638773
125	0xbd03a8b9	-0.03214333
126	0xbc8e3620	-0.017359793
127	0xbc1552ff	-0.009114026

convs.2.bias f4 [32]
0	0x3f881e51	1.0634252
1	0x3f56922a	0.8381678
2	0xbed14110	-0.4086995
3	0xbf11d412	-0.5696422
4	0xbf74e1f9	-0.95657307
5	0x3eb37501	0.35050204
6	0x3f9a9074	1.2075334
7	0x3f18dfef	0.59716696
8	0x3e6c35c0	0.23067379
9	0x3f6b755f	0.9197597
10	0x3f03bb29	0.5145746
11	0xbea2aa29	-0.31770447
12	0x3f6e9b48	0.9320569
13	0x3ed97565	0.42472377
14	0x3f9d6be6	1.2298553
15	0x3f883c03	1.0643314
16	0x3f94e6c9	1.163293
17	0xbf8a8dbe	-1.0824506
18	0x3fb5b829	1.4196826
19	0x3fad2e99	1.3529845
20	0x3f2c466f	0.67294973
21	0xbf2dd412	-0.6790172
22	0xbf0e347f	-0.5554885
23	0x3fc34466	1.5255249
24	0x3fe7110f	1.8052081
25	0x3ec20d8e	0.37900966
26	0xbf317ad3	-0.6932804
27	0x3fa03715	1.251681
28	0x3e81d7af	0.25359866
29	0x3f2bcb86	0.6710743
30	0xbf8d4b01	-1.1038514
31	0x3f1517af	0.58239263

fc.weight f4 [1, 96]
0	0x3f18b062	0.5964414
1	0xbefd1cd8	-0.4943607
2	0x3ecd8d6e	0.40146965
3	0x3ef465b7	0.47733852
4	0x3f004033	0.5009796
5	0x3ed5008f	0.4160199
6	0x3f031bd4	0.5121434
7	0x3ed5b3a7	0.41738626
8	0x3f33af87	0.7018971
9	0x3ea4afb0	0.3216529
10	0x3e06a4e0	0.13148832
11	0xbe7956be	-0.24349496
12	0x3e1d2f6d	0.15350123
13	0x3f23b759	0.6395164
14	0xbe98d7b0	-0.29852057
15	0x3e1a2f93	0.1505721
16	0xbe823841	-0.25433543
17	0x3ece9d22	0.40354258
18	0xbd8d2259	-0.06891317
19	0xbf4deb90	-0.80437565
20	0xbe2f2e22	-0.17107442
21	0x3eda0d07	0.42588064
22	0x3e82a7eb	0.25518736
23	0xbeafe3d1	-0.34353498
24	0x3f0ab591	0.541833
25	0x3f443068	0.7663636
26	0x3eaba134	0.33521426
27	0x3f39ddc8	0.72604036
28	0xbe23a268	-0.15979922
29	0x3f28d165	0.6594451
30	0x3f31c06f	0.69434255
31	0xbe2e0589	-0.16994299
32	0x3ddf4ad6	0.10902946
33	0x3e8fa119	0.28052595
34	0x3f44f0fa	0.769302
35	0x3d97412a	0.07385476
36	0x3ebe9f97	0.37231132
37	0x3f34164b	0.70346516
38	0x3ed7af1a	0.4212578
39	0x3d482019	0.048858736
40	0x3ee718d1	0.4513612
41	0x3eca09c0	0.39460564
42	0x3eea2d87	0.4573786
43	0x3f0d87af	0.5528516
44	0x3e849cc9	0.25900868
45	0x3f025d50	0.50923634
46	0x3e78f0ef	0.24310659
47	0xbee830c1	-0.45349696
48	0xbeb699f7	-0.3566434
49	0x3f118068	0.5683656
50	0x3e387420	0.18013048
51	0xbd8f4965	-0.06996421
52	0x3ec5245f	0.3850431
53	0x3e6a78df	0.22897671
54	0x3e811f3e	0.25219148
55	0x3ecb3773	0.39690742
56	0xb906f89d	-0.00012871852
57	0xbe314fab	-0.17315547
58	0xbdd78860	-0.10524058
59	0xbf0275fb	-0.50961274
60	0x3ea6ed9d	0.3260316
61	0x3f0ffa69	0.5624147
62	0x3eadedd5	0.33970514
63	0x3f25d565	0.6477874
64	0x3eca9d40	0.39573097
65	0x3e955c16	0.29171818
66	0xbef99bea	-0.48751765
67	0xbd1b8763	-0.03797091
68	0xbf136d6e	-0.5758885
69	0x3e1c31b2	0.15253332
70	0x3f1da1ff	0.6157531
71	0x3e8795de	0.26481527
72	0xbe849a9b	-0.25899205
73	0x3ef2a223	0.47389325
74	0x3d8e4015	0.069458164
75	0xbe8cfe8e	-0.2753796
76	0x3e8ca236	0.27467507
77	0x3e4c5a77	0.19956385
78	0x3f1aebb9	0.60515934
79	0x3f252401	0.6450806
80	0x3f18df53	0.59715766
81	0x3e281144	0.16412836
82	0x3f22c235	0.63577586
83	0x3f0d782c	0.5526149
84	0x3dce5298	0.10074347
85	0xbf13c544	-0.5772288
86	0x3d9d2827	0.07673674
87	0x3f6d5d62	0.92720616
88	0x3f6db496	0.9285368
89	0x3d4e942a	0.05043427
90	0xbe696b3e	-0.22794816
91	0x3f14edef	0.5817556
92	0xbedfec8d	-0.4373516
93	0x3d95f0b0	0.07321298
94	0xbe9b60e7	-0.30347368
95	0x3e32e568	0.17470324
