Dataset/saved_dict/CNN1.ckpt (torch, 4911 bytes, 7 tensors)

convs.0.weight f4 [32, 1, 2, 1]
0	0xbeb73f1c	-0.35790336
1	0xbecef53c	-0.40421474
2	0xbf9e1e15	-1.235293
3	0xbef7a0a5	-0.4836475
4	0xbf1f3907	-0.6219639
5	0xbeda345a	-0.42618066
6	0xbf9082c0	-1.1289902
7	0xbed4b993	-0.41547832
8	0xbfa46761	-1.2844049
9	0xbf34cabf	-0.70621866
10	0xbf93fffa	-1.1562493
11	0xbd2fbaf8	-0.042902917
12	0xbf99f31c	-1.2027316
13	0xbec09791	-0.37615636
14	0xbe898ab4	-0.26863635
15	0xbe8f3e6d	-0.27977315
16	0xbf5992be	-0.84989536
17	0xbeec7d2c	-0.4618925
18	0xbf8d6537	-1.1046513
19	0xbd0f015f	-0.034913417
20	0xbf821c1d	-1.016483
21	0xbfec4982	-1.8459933
22	0xbe804445	-0.25052086
23	0xbe7c0510	-0.24611306
24	0xbf2db4d3	-0.6785404
25	0xbfa567c7	-1.2922295
26	0xbf2a060f	-0.66415495
27	0xbef4d0e2	-0.47815615
28	0xbeee26b3	-0.465139
29	0xbf979d1d	-1.1844822
30	0xbfa9308a	-1.3217938
31	0xbf042bb3	-0.5162918
32	0xbf0810a2	-0.5315038
33	0xbf341e38	-0.7035861
34	0xbf04ecb6	-0.5192369
35	0xbeb342f7	-0.35012028
36	0xbf7d126a	-0.9885622
37	0xbf06e529	-0.5269342
38	0xbf902bf8	-1.1263418
39	0xbf22d4b6	-0.6360582
40	0xbf3ce393	-0.7378475
41	0xbea6545a	-0.3248623
42	0xbfb4e451	-1.4132177
43	0xbf07bc29	-0.53021485
44	0xbf4c6a0a	-0.798493
45	0xbea96e5f	-0.3309202
46	0xbf252fdb	-0.64526147
47	0xbfae45d8	-1.3615065
48	0xbf4af2ac	-0.7927654
49	0xbebf6168	-0.37379003
50	0xbeb819a3	-0.3595706
51	0xbe1d4420	-0.15358019
52	0xbf0c6912	-0.54847825
53	0xbe770b9c	-0.24125522
54	0xbfaa6d3c	-1.3314586
55	0xbf59d242	-0.8508645
56	0xbfd4af66	-1.6616027
57	0xbf0adf5a	-0.5424706
58	0xbec11ccd	-0.37717286
59	0xbf8cf142	-1.1011126
60	0xbf47c75f	-0.7803859
61	0xbfddc5c7	-1.7325982
62	0xbf4bdf87	-0.7963795
63	0xbd10e4fc	-0.035374627

convs.0.bias f4 [32]
0	0xbdcfa6b0	-0.10139215
1	0xbd5403c1	-0.051761393
2	0xbde2a058	-0.110657394
3	0xbf87729c	-1.0581851
4	0xbf9f5842	-1.2448809
5	0xbfa56b27	-1.2923325
6	0xbf9c4bfc	-1.2210689
7	0xbf1739b2	-0.5907241
8	0xbf125b1e	-0.57170284
9	0xbfe42e64	-1.7826657
10	0xbca85374	-0.020547606
11	0xbf0398ee	-0.5140523
12	0xbff3dcca	-1.9051754
13	0xbec8630b	-0.39138064
14	0xbef18b41	-0.47176555
15	0x3e55fe0f	0.20897697
16	0xbf1b70a8	-0.60718775
17	0xbf01da56	-0.5072378
18	0xbfa6d946	-1.3035057
19	0x3e9298db	0.28632244
20	0xbf50d865	-0.8158019
21	0xbfb5ce0c	-1.4203506
22	0xbfa1a6b3	-1.2628998
23	0xbf06687c	-0.5250318
24	0xbf8cfdec	-1.1014991
25	0xbd9d72b8	-0.076878965
26	0xbef5c8ce	-0.48004764
27	0xbfe3fa3f	-1.7810744
28	0xbfeda57e	-1.8566129
29	0xbeb93d16	-0.36179417
30	0xbfb8e0fc	-1.444366
31	0xbf3be03a	-0.7338902

convs.1.weight f4 [32, 1, 3, 1]
0	0xbecc8987	-0.39948675
1	0xbd800300	-0.06250572
2	0xbdb76194	-0.089541584
3	0xbdcb1ca4	-0.09917572
4	0xbdc3b558	-0.09556073
5	0xbb157d00	-0.0022810102
6	0xbebe07a9	-0.3711522
7	0xbfa4bd13	-1.2870201
8	0xbf9a2cb0	-1.2044888
9	0xbee394bb	-0.4444941
10	0xbec6a822	-0.3880015
11	0xbf778b13	-0.96696585
12	0xbf1109ee	-0.56655777
13	0xbf99d9c8	-1.2019587
14	0xbb4ae14e	-0.0030957046
15	0xbf97ad02	-1.1849673
16	0xbfa91904	-1.3210759
17	0xbede1685	-0.43376556
18	0xbf89a17d	-1.0752407
19	0xbed8ebb3	-0.42367324
20	0xbf8209cc	-1.015924
21	0x3edf0f15	0.43566194
22	0x3ecdd82e	0.40203995
23	0x3e0e2e97	0.1388496
24	0xbee59fa1	-0.4484835
25	0xbf132a56	-0.57486475
26	0xbf3d8ad7	-0.7403998
27	0xbf63930c	-0.8889625
28	0xbf010436	-0.5039705
29	0xbeeee06d	-0.46655598
30	0xbf19779c	-0.59948134
31	0xbed84b93	-0.4224516
32	0x3cf026d5	0.029315392
33	0xbee8be38	-0.45457625
34	0xbcf20e45	-0.02954782
35	0xbf646aaa	-0.89225256
36	0xbf13c49f	-0.57721895
37	0xbe5a107c	-0.21295351
38	0xbe010aae	-0.1260173
39	0xbfa47bd2	-1.2850287
40	0xbec218da	-0.37909585
41	0xbf2f8690	-0.685647
42	0xbf138203	-0.5762026
43	0xbee5523b	-0.447893
44	0xbf960852	-1.1721289
45	0xbf16ca7e	-0.5890273
46	0xbf968e1a	-1.1762116
47	0xbe8f0625	-0.27934375
48	0x3cb348df	0.021885334
49	0xbf1e23c2	-0.6177331
50	0xbf2f1821	-0.6839619
51	0xbf5955e5	-0.8489669
52	0xbf8829d5	-1.0637766
53	0xbeeb7ccd	-0.45993653
54	0xbf08150c	-0.53157115
55	0xbedcfb73	-0.4316059
56	0xbe46c5ef	-0.19411443
57	0xbfa68f52	-1.3012488
58	0xbf04eb8d	-0.5192192
59	0xbf12e4b7	-0.5738024
60	0xbddcff3c	-0.107908696
61	0xbe27acce	-0.16374514
62	0xbc197240	-0.009365618
63	0xbe967410	-0.29385424
64	0xbec21ae8	-0.37911153
65	0xbebd3224	-0.36952317
66	0xbf552f79	-0.8327556
67	0xbf258e32	-0.646701
68	0xbee1dd37	-0.44114086
69	0xbef4b45a	-0.47793847
70	0xbec708cc	-0.388739
71	0xbfa1902b	-1.2622122
72	0xbf2b8502	-0.6699983
73	0xbfbf1c9c	-1.4930606
74	0xbeb03219	-0.3441322
75	0xbee69883	-0.45038232
76	0xbede88be	-0.434637
77	0xbe5eba27	-0.21750699
78	0xbf691358	-0.9104514
79	0xbecbbd92	-0.39793068
80	0xbf0f33bf	-0.55938333
81	0xbf91b7dd	-1.1384236
82	0xbf5d3c0d	-0.86419755
83	0xbeb627a1	-0.3557711
84	0xbf3e72c9	-0.743939
85	0xbf79a6dd	-0.9752024
86	0xbcdb521f	-0.026772557
87	0xbeaa82d8	-0.3330295
88	0xbeeb8c0c	-0.46005285
89	0xbe2c8d00	-0.16850662
90	0xbf3818aa	-0.71912634
91	0xbf352dcc	-0.70773005
92	0xbf11de4e	-0.56979835
93	0xbf6421d5	-0.89114124
94	0xbfb21293	-1.3911918
95	0xbea3d89c	-0.32001197

convs.1.bias f4 [32]
0	0xbea332ff	-0.31874844
1	0xbeb6d8f6	-0.35712403
2	0xbf055344	-0.5208018
3	0xbf38eeb0	-0.7223921
4	0xbfbb174c	-1.4616485
5	0xbf96de89	-1.1786662
6	0xbe5fa749	-0.21841158
7	0x3f216be9	0.6305528
8	0xbf6ef80c	-0.9334724
9	0xbf128b8c	-0.5724418
10	0xbe763f78	-0.24047649
11	0xbf7a51e6	-0.9778122
12	0x3e709bb0	0.2349689
13	0xbf838339	-1.0274421
14	0xbf842ce0	-1.0326195
15	0xbfa3c9b4	-1.279593
16	0x3f747c42	0.955021
17	0xbf7ef652	-0.99594605
18	0xbedef12c	-0.43543375
19	0xbf8c2494	-1.0948663
20	0xbf052f51	-0.52025324
21	0xbe10b580	-0.14131737
22	0xbef33012	-0.47497612
23	0xbe7c04ce	-0.24611208
24	0xbfb731af	-1.4312037
25	0xbe1fe5a8	-0.1561495
26	0xbf73ece8	-0.95283365
27	0xbf26be65	-0.6513427
28	0xbfa06eea	-1.2533848
29	0xbed357a8	-0.41277814
30	0xbeaf00b2	-0.34180218
31	0xbf934910	-1.1506672

convs.2.weight f4 [32, 1, 4, 1]
0	0xbf4081af	-0.7519788
1	0xbf6cf99c	-0.92568374
2	0xbf25ae33	-0.6471893
3	0xbe131417	-0.14363132
4	0xbf3f9e06	-0.748505
5	0xbf77bd4f	-0.96773237
6	0xbe8ecf7b	-0.2789267
7	0xbee77fae	-0.452146
8	0xbf4b6fa6	-0.79467237
9	0xbf9c2ec4	-1.2201772
10	0xbf41c6a3	-0.7569372
11	0xbf3931e3	-0.72341746
12	0xbf6937c5	-0.9110072
13	0xbe840561	-0.25785354
14	0xbf3afe2c	-0.73044086
15	0xbe5004c4	-0.20314318
16	0xbe213a72	-0.15744951
17	0xbf0666d4	-0.52500653
18	0xbf17f591	-0.5935908
19	0xbf8d09cb	-1.1018614
20	0xbf5e5895	-0.86853915
21	0xbf35c712	-0.7100688
22	0xbf492ef8	-0.78587294
23	0xbf11d41b	-0.5696427
24	0xbf87776b	-1.0583318
25	0xbf020402	-0.50787365
26	0xbf4c5632	-0.79819024
27	0xbede4d3c	-0.434183
28	0xbf94f109	-1.1636058
29	0xbf35508f	-0.7082605
30	0xbf8497b9	-1.0358802
31	0xbe8e7052	-0.2782007
32	0xbf48f7d0	-0.7850313
33	0xbef3d1ed	-0.47621098
34	0xbf696009	-0.91162163
35	0xbf12c278	-0.57327986
36	0xbf6a070d	-0.9141701
37	0xbf0f67c6	-0.5601772
38	0xbf19d9cd	-0.6009796
39	0xbf51998a	-0.81874907
40	0xbf11096b	-0.56654996
41	0xbef2d4d0	-0.47427988
42	0xbf867169	-1.050336
43	0xbeb97072	-0.362186
44	0xbf456ee8	-0.77122355
45	0xbf1097b4	-0.5648148
46	0xbf8e247c	-1.1104884
47	0xbf621360	-0.88310814
48	0xbe813bfe	-0.25241083
49	0x3cd25a97	0.025677962
50	0xbc3c518e	-0.0114940535
51	0xbf4d8191	-0.8027583
52	0xbf1bff5f	-0.6093654
53	0xbed7b1c6	-0.42127818
54	0xbf5c1e1e	-0.85983455
55	0xbed784ac	-0.42093408
56	0xbefb8001	-0.49121097
57	0xbf94ff68	-1.1640444
58	0xbf82cd02	-1.0218813
59	0xbeba2220	-0.3635416
60	0xbf025f7b	-0.5092694
61	0xbee7a2e1	-0.45241454
62	0xbf0b746f	-0.5447454
63	0xbedb80ae	-0.42871612
64	0xbe40f0c3	-0.18841843
65	0xbe6e7333	-0.23286133
66	0xbf7d4cb7	-0.9894518
67	0xbf2f49cc	-0.6847198
68	0xbebfbbce	-0.3744797
69	0xbd98e818	-0.07466143
70	0xbe76d7dc	-0.24105781
71	0xbebba048	-0.36645722
72	0xbf83403c	-1.0253978
73	0xbf36877a	-0.7130047
74	0xbfb2cd6f	-1.3968943
75	0xbf38c1c4	-0.7217066
76	0xbf671759	-0.9027
77	0xbea6f5b8	-0.32609344
78	0xbf897cad	-1.0741173
79	0xbece95fe	-0.4034881
80	0xbf1d34d8	-0.6140876
81	0xbf0597c5	-0.52184707
82	0xbf7a85f7	-0.97860664
83	0xbec62619	-0.3870094
84	0xbf8651b8	-1.0493689
85	0xbeb0a8ea	-0.3450387
86	0xbf2a053a	-0.66414225
87	0xbf37e212	-0.7182933
88	0xbe3c81c4	-0.18408877
89	0xbcb83c40	-0.022489667
90	0x3e5da048	0.21643174
91	0xbea50f38	-0.32238173
92	0xbeb998f9	-0.3624952
93	0xbf52c2a1	-0.8232823
94	0xbf6f1c3d	-0.93402463
95	0xbf739631	-0.9515105
96	0xbf3bc815	-0.73352176
97	0xbf55abda	-0.8346535
98	0xbe5c2e89	-0.21502127
99	0xbecb5026	-0.39709586
100	0xbf29fac2	-0.6639825
101	0xbf388985	-0.7208484
102	0xbf6c26c7	-0.9224667
103	0xbe3d5d8f	-0.18492721
104	0xbe82a5ca	-0.25517112
105	0xbea29cba	-0.31760198
106	0x3da86ff0	0.082244754
107	0xbe3eb25c	-0.18622726
108	0xbe940cdc	-0.2891606
109	0xbf3cdaad	-0.7377117
110	0xbeb8b5b3	-0.36076126
111	0xbf0651c8	-0.5246854
112	0x3fdf1caf	1.7430629
113	0x3d11a08d	0.035553504
114	0x3cdd3518	0.027002856
115	0x3bb05a2c	0.005381843
116	0xbe8d4c22	-0.27597147
117	0xbe03354c	-0.128133
118	0x3eecb57a	0.46232206
119	0xbe0b7674	-0.13619405
120	0xbe3cc337	-0.18433844
121	0xbf3d4f79	-0.7394939
122	0xbf70f1d4	-0.94119
123	0xbf65dffb	-0.8979489
124	0xbf12f134	-0.57399297
125	0xbef6fb86	-0.48238772
126	0xbf79ef4e	-0.97630775
127	0xbc880da6	-0.01660807

convs.2.bias f4 [32]
0	0xbee4acc5	-0.44663063
1	0xbec8de7c	-0.39232242
2	0xbf844e97	-1.0336484
3	0xbed98138	-0.424814
4	0x3cc8c821	0.024509491
5	0xbf06a73e	-0.5259894
6	0xbf6173fd	-0.8806761
7	0xbec5d687	-0.38640234
8	0xbe6057d2	-0.21908501
9	0xbf85ed19	-1.0462981
10	0xbee37637	-0.44426128
11	0xbf1700a7	-0.5898537
12	0xbd3b58c7	-0.04573896
13	0xbf6c0bf5	-0.92205745
14	0xbe525a9b	-0.20542376
15	0xbfa26c70	-1.2689342
16	0xbeba1fd7	-0.36352417
17	0x3eb31a42	0.3498097
18	0xbf945e0f	-1.1591204
19	0xbf86cd08	-1.053132
20	0xbf8bf5e3	-1.0934414
21	0xbf61061d	-0.87899953
22	0xbeac231e	-0.33620542
23	0xbf3e2b1f	-0.7428455
24	0xbf8f3401	-1.1187745
25	0xbfa2e17a	-1.272506
26	0xbd5273e0	-0.05138004
27	0xbf121a71	-0.57071596
28	0x3fcc17a5	1.5944716
29	0xbe56d064	-0.20977932
30	0xbe883917	-0.26606056
31	0xbe4e78b3	-0.2016323

fc.weight f4 [1, 96]
0	0x3d6179f8	0.05504796
1	0xbede0223	-0.43361005
2	0xbd5d2e6b	-0.053999346
3	0xbee6f943	-0.45112047
4	0xbf082cff	-0.5319366
5	0xbe9a525a	-0.30140954
6	0xbe53114a	-0.20612064
7	0x3ea2e222	0.3181315
8	0xbec32164	-0.38111413
9	0xbe8bb57d	-0.27286902
10	0xbf32f570	-0.6990576
11	0xbd5790af	-0.052628215
12	0xbd9fa286	-0.07794671
13	0x3ebb9c0d	0.36642495
14	0xbe3d8c93	-0.18510656
15	0x3f231720	0.6370716
16	0x3eb87732	0.3602844
17	0xbe3e72d9	-0.18598498
18	0xbe8de25c	-0.2771176
19	0x3e5b24ec	0.21400803
20	0xbe96d6cf	-0.2946076
21	0xbee3693c	-0.44416225
22	0xbec8262a	-0.39091617
23	0xbe187330	-0.1488769
24	0xbee05428	-0.43814206
25	0xbd4414d5	-0.04787143
26	0xbcc86ff8	-0.024467453
27	0xbebd2a8a	-0.36946517
28	0xbed9c590	-0.4253354
29	0xbe9c484d	-0.3052391
30	0xbe63694d	-0.22208138
31	0xbe5d41c9	-0.21607126
32	0x3d2fad20	0.042889714
33	0x3c1974a0	0.0093661845
34	0x3ad90db9	0.0016559876
35	0xbe33a64e	-0.17543909
36	0xbec715d8	-0.38883853
37	0xbf2cbf82	-0.6747972
38	0x3f13d2ee	0.5774373
39	0xbd2f139d	-0.042743314
40	0xbed1dcd2	-0.40988785
41	0xbed457f5	-0.41473356
42	0xbde8474e	-0.11341725
43	0xbde39627	-0.11112624
44	0xbdb927c9	-0.090407915
45	0xbdf784d9	-0.120858856
46	0xbe6fd7d0	-0.2342217
47	0xbedd8fe8	-0.43273854
48	0x3e10a8ef	0.14126943
49	0xbd2706e1	-0.040778045
50	0xbe928f71	-0.28625062
51	0x3ef714e2	0.4825812
52	0xbd0f384e	-0.034965806
53	0xbdc78dc0	-0.097438335
54	0xbe9f026e	-0.3105654
55	0xbdba605e	-0.09100412
56	0xbef43854	-0.47699225
57	0xbeb1eba5	-0.34750095
58	0xbec02ac3	-0.37532625
59	0xbeefd6bf	-0.46843526
60	0xbeac161d	-0.3361062
61	0x3acd4280	0.0015660077
62	0x3c0b2f97	0.008495233
63	0xbea698b3	-0.32538375
64	0xbdebdfdb	-0.115173064
65	0x3f0895c7	0.5335354
66	0xbeeb783c	-0.4599017
67	0xbeb9a32f	-0.36257312
68	0x3e5bcf0b	0.214657
69	0x3f115d75	0.5678323
70	0xbf023c1f	-0.5087299
71	0xbed2f6c2	-0.41203886
72	0xbf0a46a8	-0.5401406
73	0xbf07c6c5	-0.53037673
74	0xbece1aa6	-0.40254706
75	0x3eb358b6	0.3502862
76	0x3da997e1	0.08280922
77	0xbeb97942	-0.36225325
78	0xbef399e1	-0.47578338
79	0xbe9553bd	-0.2916545
80	0xbb400c39	-0.002930416
81	0xbd734ce3	-0.059399497
82	0xbeb1cb0d	-0.34725228
83	0xbed38e9e	-0.41319746
84	0xbecdb4b8	-0.4017694
85	0xbecf8d89	-0.4053767
86	0xbd25788f	-0.040398177
87	0x3eb0f5be	0.34562486
88	0xbeac81c8	-0.33692765
89	0xbeb4251a	-0.35184556
90	0xbcfad074	-0.030616976
91	0xbe42446d	-0.18971415
92	0x3f0d46fb	0.5518643
93	0xbd4a9c82	-0.049465664
94	0x3f06fa44	0.52725625
95	0xbea068a1	-0.31329826
