Codes/Dataset/saved_dict/pre/CNN_XJK.ckpt (torch, 4911 bytes, 7 tensors)

convs.0.weight f4 [32, 1, 2, 1]
-0.54188395 -0.21986368 -0.26278922 -0.17220801 -0.7536494 -0.5773426 0.05144914 -0.10376448
-0.020159127 -0.16710152 -0.16106714 -0.110406764 0.021917319 -0.06928868 -0.33664224 -0.5427008
-0.0034654476 -0.12807515 -0.39787745 0.1360214 0.03352635 -0.10262678 0.044552978 -0.060891803
-0.040593106 0.06662659 0.12569441 0.14977784 -0.17532538 -0.2501596 -0.10640699 -0.23499516
-0.6325641 -0.2436546 0.35365745 -0.7933514 -0.010552206 -0.29418707 -0.16838253 -0.117885046
0.16278203 -0.38000733 -0.1660844 -0.33810124 -0.21949393 -0.1306442 0.03258245 -0.08209801
-0.2892217 -0.11697049 -0.24927075 -0.16426119 0.0067392066 0.014881194 -0.04041499 -0.2357095
-0.75802714 -0.0405688 -0.4657087 0.21594179 0.05132016 -0.15953268 -0.009109464 -0.10406837
00000000: e8b8 0abf f223 61be 4f8c 86be 4c57 30be
00000010: 2bef 40bf bacc 13bf 55bc 523d 7982 d4bd
00000020: c124 a5bc a91c 2bbe c9ee 24be f11c e2bd
00000030: f38b b33c 39e7 8dbd 5f5c acbe 71ee 0abf
00000040: 901c 63bb 2226 03be 98b6 cbbe 3249 0b3e
00000050: ed52 093d fd2d d2bd 2f7d 363d af69 79bd
00000060: f544 26bd 8673 883d 09b6 003e 5d5f 193e
00000070: 7f88 33be eb14 80be e8eb d9bd 92a2 70be
00000080: b9ef 21bf 9780 79be 9712 b53e 1419 4bbf
00000090: 29e3 2cbc b09f 96be 786c 2cbe b76d f1bd
000000a0: 55b0 263e 5290 c2be 0712 2abe 9b1b adbe
000000b0: 04c3 60be 98c7 05be 2d75 053d 0023 a8bd
000000c0: de14 94be 398e efbd d540 7fbe 1634 28be
000000d0: 90d4 dc3b 40d0 733c 308a 25bd d55d 71be
000000e0: 110e 42bf 782b 26bd 5f71 eebe d81f 5d3e
000000f0: 1735 523d 895c 23be dc3f 15bc cc21 d5bd

convs.0.bias f4 [32]
-1.6883441 1.7708238 -0.53526986 1.9323868 1.7840868 -0.45012105 1.0392793 -0.8855519
0.23578295 -0.7756208 0.85972756 2.0274029 0.5486753 1.6835676 -0.8764666 -0.6244184
0.30838954 -0.33058044 0.76589054 1.1679072 -1.0336406 -1.4066519 -0.8003344 1.3228756
2.3194928 1.5233414 0.46905795 1.4747732 -1.3168433 0.4373106 -0.7649762 2.4122527
00000000: a91b d8bf 5baa e23f 7207 09bf 7358 f73f
00000010: f55c e43f 4476 e6be 1b07 853f 88b3 62bf
00000020: 1671 713e 168f 46bf 1b17 5c3f f8c0 0140
00000030: fc75 0c3f 257f d73f 1d60 60bf e2d9 1fbf
00000040: 3ce5 9d3e d741 a9be 6711 443f fc7d 953f
00000050: 564e 84bf 2b0d b4bf b7e2 4cbf fd53 a93f
00000060: 9272 1440 dafc c23f 5d28 f03e 5ec5 bc3f
00000070: 528e a8bf 2de7 df3e 7bd5 43bf 5962 1a40

convs.1.weight f4 [32, 1, 3, 1]
-0.10839502 -0.63245505 0.2627585 -0.009970999 0.027654134 -0.01156204 -0.31569862 0.20630974
-0.23760733 0.48913297 -0.47636712 -0.18891877 0.5094154 -0.44181934 -0.1972988 -0.2122178
-0.28930512 0.31345332 -0.33649457 -0.8943937 0.24779133 -0.057438772 -0.6997523 -0.23278376
-0.35478884 -0.009906638 -0.32892668 -0.89627045 -0.14347404 -0.58482087 0.027154416 -0.06398529
0.074298866 -0.044246346 -0.7084465 -0.43635553 0.076939486 -0.22298211 -0.034263268 0.2505026
-0.3374172 -0.64607114 -0.7088816 -0.12554929 0.08924288 0.000739133 -0.92234415 0.02694478
0.36869356 -1.050418 -0.35850662 0.90339136 -0.85899156 -0.36271697 -0.063633844 -0.8272961
0.19271156 -0.18333118 -0.62500465 0.34261733 0.26855254 -0.33920804 0.49812007 -0.32956624
-0.21983999 0.37140188 0.28390294 -0.2493251 -0.18755454 0.33970827 -0.81685066 -0.26697332
-0.61409456 -0.3397982 -0.6007832 0.22409217 -0.5238779 -0.16993408 0.1851196 0.28948182
-0.34763297 0.5285181 -0.63879174 -0.12636879 -0.21463805 -0.5291185 -0.52438796 0.30788466
-0.3207511 -0.3117664 0.35366043 -0.15925942 -0.5276815 -0.36624834 0.07112527 -0.6217146
00000000: 35fe ddbd 93e8 21bf 4888 863e 675d 23bc
00000010: ec8a e23c b66e 3dbc 40a3 a1be dc42 533e
00000020: 564f 73be a36f fa3e 64e6 f3be ec73 41be
00000030: 0c69 023f 2536 e2be b208 4abe 9f4f 59be
00000040: cd1f 94be f47c a03e 0449 acbe fcf6 64bf
00000050: 03bd 7d3e eb44 6bbd f722 33bf de5e 6ebe
00000060: e2a6 b5be 744f 22bc 1469 a8be fb71 65bf
00000070: dcea 12be d2b6 15bf f072 de3c b80a 83bd
00000080: 012a 983d a83b 35bd c05c 35bf fe69 dfbe
00000090: 7392 9d3d 6c55 64be a457 0cbd e041 803e
000000a0: f2c1 acbe eb64 25bf 4479 35bf fe8f 00be
000000b0: f9c4 b63d 60c2 413a bf1e 6cbf 4dbb dc3c
000000c0: 67c5 bc3e 1974 86bf 2e8e b7be a844 673f
000000d0: dfe6 5bbf 0ab6 b9be 7652 82bd adc9 53bf
000000e0: 2e56 453e 2bbb 3bbe 4e00 20bf 8a6b af3e
000000f0: b87f 893e adac adbe 9809 ff3e e8bc a8be
00000100: bc1d 61be 6328 be3e ba5b 913e 144f 7fbe
00000110: 4c0e 40be 3eee ad3e 201d 51bf bab0 88be
00000120: 4d35 1dbf 08fa adbe eecc 19bf 6b78 653e
00000130: dd1c 06bf 3303 2ebe fe8f 3d3e f636 943e
00000140: f3fc b1be f64c 073f db87 23bf d266 01be
00000150: 14ca 5bbe 4f74 07bf 4a3e 06bf 0fa3 9d3e
00000160: 7d39 a4be d89f 9fbe fb12 b53e e714 23be
00000170: 2316 07bf e784 bbbe 20aa 913d b028 1fbf

convs.1.bias f4 [32]
-1.1945161 0.30345514 1.7259322 1.3448011 -0.7247488 0.4388301 -0.27114692 -1.1089389
-1.4036456 -0.36459193 1.0929967 -0.1520527 1.417647 0.1781598 -1.1594696 0.3592011
-0.7456402 -0.35669133 -1.5736736 -0.28501442 -1.4574676 -0.558992 -1.5742443 0.3013396
-0.31692702 -0.76593775 0.92812955 -0.12560107 -1.1380523 -0.9539597 -0.70447 -1.083035
00000000: e7e5 98bf 795e 9b3e 59eb dc3f 7122 ac3f
00000010: 2389 39bf 57ae e03e c5d3 8abe b6f1 8dbf
00000020: a9aa b3bf cbab babe 51e7 8b3f b4b3 1bbe
00000030: 7575 b53f 866f 363e 8069 94bf 35e9 b73e
00000040: 47e2 3ebf 3fa0 b6be 236e c9bf 69ed 91be
00000050: 4c8e babf 1a1a 0fbf d680 c9bf 2f49 9a3e
00000060: 4244 a2be 7f14 44bf e699 6d3f 919d 00be
00000070: b3ab 91bf b436 74bf 2558 34bf e4a0 8abf

convs.2.weight f4 [32, 1, 4, 1]
-0.3002419 0.38496342 -0.1890133 0.9273909 -1.0044192 -0.1389395 0.25466993 0.21023639
0.3090929 0.1525338 0.24879567 -0.2437765 0.007165576 -0.55571634 -0.26536107 0.17656618
-0.12591363 -0.3473896 0.625078 0.70843726 -0.6813017 -0.773077 0.53291696 -0.6043972
-0.07779768 -0.015815785 0.018415572 1.8383622 -0.22319742 0.09790391 -0.23128586 -0.11639681
-0.18098888 0.14421046 -0.56379634 1.0008425 -0.5212789 -0.40046605 0.6721897 0.41126898
0.25790325 -0.89163345 -0.6407883 -0.63894606 0.067629494 0.97361046 -0.77680284 -1.2333125
-0.82712865 -0.3164521 0.3687257 0.6568637 0.1371606 0.32394058 -0.79096526 -0.42713362
-0.33554253 0.46272203 -0.07125024 -0.60864264 0.01894091 0.2743031 0.26415843 -0.26364872
-0.16996804 -0.3300276 -0.43996978 1.028007 -0.044911217 0.18996756 -0.06836774 -0.42810914
0.20388907 0.17809524 -0.43786842 0.1451121 -0.23085716 0.24691899 -0.17890754 -0.65366983
0.35918748 -0.20924811 -0.39476362 0.04382382 0.23834935 0.12735133 0.06569218 -0.071804635
0.9269298 -0.101531 0.39678895 -0.10223117 0.18443546 -0.98433053 -0.085275695 -0.21582852
-0.6811516 0.34353423 -0.9052809 -0.2647693 -0.9131312 -0.3544767 0.5050649 0.18171415
0.08343731 -0.69556123 -0.29646826 -0.027139572 -0.12992366 -0.23911583 -0.041513707 -0.23414335
-0.32103154 0.010184001 0.13128102 -1.8210943 0.85040694 -0.023911443 -0.649745 -0.46912262
-0.1090873 -0.26888958 -0.13266529 1.1551987 0.12736988 0.53590965 -0.87049186 -0.4263327
00000000: 4eb9 99be ed19 c53e b48c 41be 7d69 6d3f
00000010: cf90 80bf 2846 0ebe 1964 823e 3548 573e
00000020: 6d41 9e3e d231 1c3e 4bc4 7e3e 8ca0 79be
00000030: 35cd ea3b 6d43 0ebf 68dd 87be c4cd 343e
00000040: 81ef 00be 0ddd b1be 1d05 203f 255c 353f
00000050: ca69 2ebf 60e8 45bf 3f6d 083f c6b9 1abf
00000060: 6454 9fbd 1b90 81bc 41dc 963c 744f eb3f
00000070: dd8d 64be d881 c83d 33d6 6cbe 7361 eebd
00000080: 2655 39be e8ab 133e f554 10bf 9b1b 803f
00000090: 8972 05bf e309 cdbe a014 2c3f d991 d23e
000000a0: e50b 843e 1742 64bf b40a 24bf f891 23bf
000000b0: 5581 8a3d 893e 793f 8ddc 46bf 2fdd 9dbf
000000c0: b4be 53bf 0206 a2be 9dc9 bc3e 3828 283f
000000d0: d473 0c3e 8adb a53e b37c 4abf 42b1 dabe
000000e0: 3bcc abbe e7e9 ec3e a5eb 91bd 01d0 1bbf
000000f0: f829 9b3c 7571 8c3e c63f 873e f7fc 86be
00000100: 1a0c 2ebe 61f9 a8be b843 e1be bc95 833f
00000110: d3f4 37bd db86 423e 6304 8cbd 1f31 dbbe
00000120: 4cc8 503e 995e 363e 4a30 e0be 4498 143e
00000130: d265 6cbe 55d8 7c3e 8a33 37be e856 27bf
00000140: 6ce7 b73e 2345 56be 751e cabe 9b80 333d
00000150: da11 743e 6368 023e 9f89 863d 4f0e 93bd
00000160: 454b 6d3f 7cef cfbd ec27 cb3e 935e d1bd
00000170: a6dc 3c3e 16fd 7bbf 06a5 aebd 2702 5dbe
00000180: f45f 2ebf b8e3 af3e 7dc0 67bf d78f 87be
00000190: f7c2 69bf f87d b5be ef4b 013f 4613 3a3e
000001a0: 2ee1 aa3d 4d10 32bf b0ca 97be cf53 debc
000001b0: b50a 05be c8da 74be 470a 2abd 46c3 6fbe
000001c0: 3f5e a4be ccda 263c 886e 063e 9e19 e9bf
000001d0: 45b4 593f eee1 c3bc b055 26bf d730 f0be
000001e0: 2a69 dfbd e5ab 89be 69d9 07be 8ddd 933f
000001f0: 406d 023e 6031 093f 8ed8 5ebf 4848 dabe

convs.2.bias f4 [32]
-1.2070388 -0.022859821 1.0934725 -1.1602601 1.878134 0.80480087 1.1674502 -0.59508735
1.480717 -0.94507146 0.59419274 1.2514266 -0.50704885 -0.0011195886 1.6990902 1.8532934
-0.48487884 1.2230679 1.1463838 1.6646972 -1.1249967 2.2573376 2.3396196 -1.3296775
-0.85361105 0.36627463 -0.17949188 -0.60041815 0.31989744 0.21464711 -0.70136356 -0.66007423
00000000: 3f80 9abf 8544 bbbc e8f6 8b3f 6783 94bf
00000010: b266 f03f 6e07 4e3f 026f 953f a557 18bf
00000020: 2288 bd3f 34f0 71bf 041d 183f bf2e a03f
00000030: f4cd 01bf 29bf 92ba ca7b d93f b838 ed3f
00000040: 0a42 f8be 7d8d 9c3f b4bc 923f cc14 d53f
00000050: e4ff 8fbf 3878 1040 54bc 1540 df32 aabf
00000060: 4186 5abf 5988 bb3e b8cc 37be 01b5 19bf
00000070: 99c9 a33e 74cc 5b3e 908c 33bf a0fa 28bf

fc.weight f4 [1, 96]
-0.14115332 0.7861538 -0.3170546 0.7541965 1.0058265 -0.23109068 0.4157975 0.217997
0.04463603 -0.022597393 0.24759956 0.92511106 0.11086468 0.6686042 -0.4359167 -0.019951873
0.009812635 -0.18482164 0.22547114 0.5748421 -0.4912865 -0.23846793 -0.18209544 0.4875865
0.89214915 0.679926 0.094988786 0.6430975 -0.17565672 0.018459221 -0.5616035 1.2580346
0.033713162 0.05457323 0.56761944 0.28836122 -0.1290964 0.018064097 -0.1052879 -0.3112038
-0.2311705 -0.14703482 0.20333701 0.050182126 0.4356668 -0.07007609 0.42808178 -0.0939113
-0.17266235 -0.32635605 -0.18398337 -0.2349597 0.019373527 -0.11233309 -0.17847155 -0.028016899
-0.2467093 -0.0344846 0.33807755 -0.1801883 0.042989872 -0.039247006 -0.07537174 -0.47006133
-0.2883749 -0.050163724 0.2343321 0.47621125 0.5228094 0.22669251 0.5042989 0.022651955
0.5820987 -0.0895455 0.39085144 0.38679752 -0.08363381 -0.07318934 0.20646083 0.35973686
-0.49270627 0.18075429 0.33190846 0.23002811 -0.11817302 0.60375315 0.8479375 -0.041903794
-0.22119647 0.032228284 0.044654362 0.09576846 -0.010712187 0.063000895 -0.23123348 -0.11461908
00000000: 7f8a 10be 6041 493f fb54 a2be 0613 413f
00000010: ecbe 803f 09a3 6cbe 69e3 d43e 9b3a 5f3e
00000020: 45d4 363d 2b1e b9bc bd8a 7d3e 14d4 6c3f
00000030: 050d e33d a529 2b3f 7930 dfbe 1c72 a3bc
00000040: 2dc5 203c e241 3dbe e8e1 663e da28 133f
00000050: e789 fbbe f030 74be 3a77 3abe f0a4 f93e
00000060: e363 643f a10f 2e3f 7b89 c23d 0aa2 243f
00000070: 5bdf 33be cb37 973c 3fc5 0fbf 4707 a13f
00000080: d016 0a3d 2e88 5f3d 824f 113f 15a4 933e
00000090: d931 04be 28fb 933c 2fa1 d7bd 1b56 9fbe
000000a0: f6b7 6cbe 4c90 16be 9437 503e c68b 4d3d
000000b0: b80f df3e 0e84 8fbd 892d db3e 9154 c0bd
000000c0: 66ce 30be 2418 a7be 2366 3cbe 4799 70be
000000d0: 3bb5 9e3c e40e e6bd 3fc1 36be b283 e5bc
000000e0: 5da1 7cbe b93f 0dbd 8018 ad3e 4883 38be
000000f0: 2616 303d 78c1 20bd 805c 9abd e1ab f0be
00000100: e0a5 93be 7a78 4dbd c1f4 6f3e f6d1 f33e
00000110: d6d6 053f 1522 683e bc19 013f 9890 b93c
00000120: 6c04 153f a263 b7bd ae1d c83e 530a c63e
00000130: 3448 abbd 4be4 95bd 786a 533e 6e2f b83e
00000140: ff43 fcbe a717 393e e8ef a93e 7d8c 6b3e
00000150: b204 f2bd 918f 1a3f 6f12 593f 50a3 2bbd
00000160: 5481 62be ce01 043d 7ee7 363d 4122 c43d
00000170: 2b82 2fbc 9d06 813d 78c8 6cbe 69bd eabd
